mnist_cnn_attention.pth (torch, 204432 bytes, 7 tensors)

conv1.weight f4 [32, 1, 3, 3]
-0.20009965 -0.037007794 -0.20552108 -0.07477645 -0.116991974 -0.056477997 0.26526323 -0.17663038
-0.25274605 0.026918944 -0.13678555 -0.40811136 -0.2734163 -0.22132063 -0.12840511 -0.1513052
0.016727414 0.12137945 0.028585553 0.2299204 0.056750968 -0.18997501 0.27196002 -0.30148107
0.10121532 0.25353983 -0.22424378 -0.4836843 0.0583469 0.08304134 -0.47810468 -0.025095457
0.26186883 -0.098629914 0.3365719 0.3194398 -0.17098214 0.30415317 0.5711329 0.05789099
-0.24371856 -0.15688208 -0.4158065 -0.44266897 -0.2248567 -0.1147267 0.29048735 -0.4877679
0.048130047 -0.08806782 -0.23259574 0.029148227 0.22679155 0.37604287 -0.11616551 -0.40775537
0.22579965 -0.19505323 0.33240274 0.2008689 0.014017623 0.10895448 -0.25105667 0.21045695
0.22029261 -0.20068379 0.003521646 0.2736977 -0.27695927 -0.18838644 0.2377657 -0.12733203
0.28079212 -0.22399852 -0.16551659 0.20811193 -0.00515617 -0.4782633 0.44734862 -0.21525797
-0.16142058 -0.0076571386 0.042083126 -0.31292686 0.26530346 0.18867192 0.2364143 -0.06264373
0.07162104 0.09294024 -0.019136826 -0.21268874 -0.30295756 0.36161837 0.19411837 -0.4338682
0.085251026 -0.13211013 -0.06385439 0.16159476 0.27994257 0.30994293 0.28711316 0.27563798
-0.25354493 -0.37423518 -0.57083476 -0.10867893 -0.21579587 -0.43075404 -0.028743228 -0.09276987
-0.1662609 -0.17471494 0.3564307 0.46492875 0.28478423 -0.11450384 -0.26428533 0.27267036
0.08693138 -0.08025266 0.27282786 0.003850794 0.23720516 -0.47166383 0.20429464 0.31850016
-0.23286551 -0.36407042 -0.64302313 -0.29333097 -0.30382243 0.40646058 0.34425163 -0.19939429
0.1019836 -0.20525064 0.20620534 -0.13746901 0.19776462 0.3733501 -0.08213381 -0.27767974
0.46415854 0.33487394 -0.029817501 0.19545552 -0.2051101 -0.18328664 0.02359929 -0.10981881
-0.47046372 0.21382768 -0.45956 -0.5788935 -0.35975274 -0.48695457 0.40817204 -0.49898502
0.05328468 0.45504555 -0.01686408 0.42877313 0.5171135 -0.44973165 -0.067193195 0.42625794
-0.5604945 -0.28727973 -0.15665537 -0.44145423 -0.24218653 0.112662934 0.010371023 0.41534945
-0.25346398 0.17847346 -0.005148171 -0.13584691 -0.29498103 -0.013233477 0.379159 0.3700284
-0.26451617 -0.13538317 0.091305174 -0.3053253 0.021506405 0.28455153 -0.0918209 -0.38619882
0.28163826 -0.015334084 -0.2767066 0.039854627 0.28648877 -0.073609635 -0.107759535 -0.2939773
0.07895289 -0.24042302 -0.25475624 0.5118917 -0.24773562 -0.32202268 0.17477113 -0.27924183
0.19357388 0.029702215 -0.17334205 0.09880334 -0.12455885 0.14924684 -0.023682375 0.042234484
-0.0070888293 0.29548916 -0.24821465 -0.19993915 0.28008485 0.23800178 -0.28977212 -0.2656329
-0.11072798 -0.33498386 -0.34489354 -0.31904173 0.15191418 -0.27279076 -0.40170443 0.5613929
0.114559844 -0.09497145 -0.015071019 -0.5923504 -0.3743878 0.27604917 0.2840098 -0.12715101
0.10049442 0.13590884 0.3033079 0.12787983 0.29686692 0.20294796 -0.4125177 -0.43915236
-0.12892863 0.27335656 -0.050604966 -0.08948824 -0.20497145 0.44906497 -0.05206176 0.43738478
00000000: ece6 4cbe 7c95 17bd 1e74 52be 6524 99bd
00000010: 7d99 efbd 7955 67bd 95d0 873e 98de 34be
00000020: ee67 81be 1e85 dc3c 8311 0cbe f9f3 d0be
00000030: 39fd 8bbe e0a1 62be a17c 03be c0ef 1abe
00000040: ee07 893c ca95 f83d 402c ea3c 4170 6b3e
00000050: b473 683d cf88 42be 583e 8b3e ba5b 9abe
00000060: fa49 cf3d f9cf 813e 29a0 65be 78a5 f7be
00000070: 29fd 6e3d 9411 aa3d 23ca f4be fd94 cdbc
00000080: ac13 863e 7bfe c9bd 2753 ac3e 9d8d a33e
00000090: f115 2fbe f7b9 9b3e c435 123f 1a1f 6d3d
000000a0: 5c91 79be b2a5 20be 97e4 d4be 82a5 e2be
000000b0: d640 66be d5f5 eabd c2ba 943e b7bc f9be
000000c0: 0324 453d e75c b4bd 942d 6ebe 43c8 ee3c
000000d0: 0b3c 683e b188 c03e 2fe8 edbd 50c5 d0be
000000e0: 0638 673e 09bc 47be b130 aa3e 94b0 4d3e
000000f0: 2caa 653c 8723 df3d 808a 80be 0782 573e
00000100: 6394 613e 0d80 4dbe 6acb 663b 1b22 8c3e
00000110: 9bcd 8dbe 60e8 40be da78 733e 5463 02be
00000120: fcc3 8f3e de5f 65be 2e7d 29be 4b1b 553e
00000130: 17f5 a8bb edde f4be e10a e53e 966c 5cbe
00000140: 704b 25be bce8 fabb 5b5f 2c3d f337 a0be
00000150: dbd5 873e 3633 413e 9716 723e 5b4b 80bd
00000160: 0dae 923d 7457 be3d d5c4 9cbc 14cb 59be
00000170: 411d 9bbe 0b26 b93e f7c6 463e f923 debe
00000180: 1798 ae3d e147 07be 17c6 82bd 1979 253e
00000190: a254 8f3e d7b0 9e3e 7f00 933e 6c20 8d3e
000001a0: a4d0 81be c19b bfbe 3a22 12bf 0f93 debd
000001b0: 98f9 5cbe cb8b dcbe eb76 ebbc 21fe bdbd
000001c0: 4c40 2abe 79e8 32be 167e b63e 240b ee3e
000001d0: 3dcf 913e fd80 eabd 6850 87be 739b 8b3e
000001e0: 1409 b23d 825b a4bd 18b0 8b3e 9a5d 7c3b
000001f0: e9e5 723e ec7d f1be 9d32 513e 7412 a33e
00000200: 4c74 6ebe 7067 babe 2a9d 24bf 7a2f 96be
00000210: 9d8e 9bbe 9a1b d03e c041 b03e 042e 4cbe
00000220: c7dc d03d 392d 52be 7e27 533e adc4 0cbe
00000230: cf82 4a3e bf27 bf3e c535 a8bd 0a2c 8ebe
00000240: 30a6 ed3e 9974 ab3e d543 f4bc 7e25 483e
00000250: 6208 52be 7eaf 3bbe 4c53 c13c afe8 e0bd
00000260: 9fe0 f0be a5f5 5a3e 734b ebbe 5d32 14bf
00000270: 8331 b8be 1c52 f9be edfb d03e f77a ffbe
00000280: 0941 5a3d bbfb e83e 8a26 8abc 2788 db3e
00000290: 8d61 043f 3a43 e6be 969c 89bd 7b3e da3e
000002a0: 917c 0fbf 5416 93be 446a 20be 4a06 e2be
000002b0: bfff 77be d3bb e63d 39eb 293c afa8 d43e
000002c0: 08c6 81be bfc1 363e fdb1 a8bb 741b 0bbe
000002d0: c107 97be 3ad1 58bc 2121 c23e 5d74 bd3e
000002e0: aa6e 87be e3a1 0abe 35fe ba3d 9953 9cbe
000002f0: 332e b03c bdb0 913e 990c bcbd dabb c5be
00000300: e432 903e cf3b 7bbc 7dac 8dbe 9b3e 233d
00000310: a8ae 923e a6c0 96bd 08b1 dcbd 3184 96be
00000320: 0eb2 a13d 7431 76be 696f 82be 560b 033f
00000330: 68ae 7dbe 28e0 a4be 34f7 323e c9f8 8ebe
00000340: 3b38 463e 0f52 f33c 9480 31be 6859 ca3d
00000350: b618 ffbd 2ad4 183e 8a01 c2bc 11fe 2c3d
00000360: 6949 e8bb 5b4a 973e fb2b 7ebe d9bc 4cbe
00000370: 4867 8f3e bdb6 733e 035d 94be 0901 88be
00000380: 5ac5 e2bd 0183 abbe e395 b0be 7059 a3be
00000390: 648f 1b3e 3bab 8bbe 34ac cdbe 72b7 0f3f
000003a0: 5a9e ea3d 6480 c2bd 6fec 76bc 47a4 17bf
000003b0: c2af bfbe 5156 8d3e bc69 913e e033 02be
000003c0: 05d0 cd3d b02b 0b3e 2c4b 9b3e eef2 023e
000003d0: f1fe 973e 97d1 4f3e 8535 d3be 94d8 e0be
000003e0: de05 04be 64f5 8b3e 2747 4fbd 9c45 b7bd
000003f0: 09e4 51be d8eb e53e b63e 55bd e6f0 df3e

conv1.bias f4 [32]
0.09447203 0.23792976 0.07258641 -0.18517531 -0.09676777 -0.047205303 -0.11406698 0.03454689
-0.086791694 -0.25763166 0.0032633059 -0.17850134 -0.04225134 -0.13191265 -0.111085825 -0.23187578
-0.19294521 -0.26925546 -0.2101861 0.036954053 -0.073535495 -0.06551113 -0.28715095 -0.13829015
-0.013938633 -0.080865994 -0.0871128 -0.14897487 -0.098430954 -0.04685876 -0.19037332 -0.12003844
00000000: 8d7a c13d dca3 733e 2fa8 943d 999e 3dbe
00000010: 2e2e c6bd 595a 41bd f39b e9bd 0a81 0d3d
00000020: d8bf b1bd 4ce8 83be 30dd 553b 0ec9 36be
00000030: be0f 2dbd 1c14 07be f780 e3bd d870 6dbe
00000040: 6e93 45be dadb 89be 063b 57be 225d 173d
00000050: c799 96bd b32a 86bd 7305 93be ef9b 0dbe
00000060: dd5e 64bc 129d a5bd 3268 b2bd de8c 18be
00000070: 2b96 c9bd f9ee 3fbd 39f1 42be b7d6 f5bd

conv2.weight f4 [64, 32, 3, 3]
-0.031163877 0.032143496 0.033299282 0.004241755 -0.020245994 0.091710195 0.10241828 -0.11744909
0.025247552 0.03517892 -0.030245885 0.06656338 -0.13597515 -0.07610529 -0.0040987036 0.080568
0.0077364077 -0.08218111 -0.04288483 -0.00981395 -0.016329115 -0.09139843 -0.085001 0.039756972
-0.038187303 -0.04514989 0.06940495 0.07383167 0.03491391 -0.09488318 -0.1621547 0.070652716
-0.07953215 -0.22919534 0.15521827 0.03872347 -0.012718266 -0.076591946 -0.05852068 0.21845736
-0.06960032 -0.20088144 0.0909729 0.02739067 0.07497883 0.0563004 -0.015620013 -0.0587867
-0.023426807 -0.023658523 -0.11885837 -0.084145874 0.00942858 -0.1858724 0.013959605 0.01912303
-0.093126945 -0.047896467 -0.019894535 -0.014326108 -0.14924063 0.1288327 0.14875543 -0.0026772409
-0.026319478 -0.035514615 0.06389542 0.022100292 -0.0013587015 -0.018022917 -0.038704246 0.021337954
-0.05910031 -0.04794583 -0.17316788 -0.09275053 -0.06875756 0.011972336 -0.08733547 -0.14807704
0.13325737 -0.05746597 -0.035840824 0.0015887709 0.020361416 0.034730975 -0.02796334 -0.22925606
-0.039484307 0.037656687 -0.06504624 -0.034847166 -0.104685664 0.067097366 -0.044447415 -0.068879254
0.004641092 -0.0858392 0.056056786 -0.18720852 -0.2776333 -0.22935213 0.28562638 0.086975574
-0.106928155 0.049087044 -0.10543195 0.04012239 0.08978112 0.026745766 -0.06950976 0.048562057
-0.033453442 -0.07160754 -0.11504582 0.0013406088 -0.08731238 -0.018781101 0.03556919 -0.049308132
0.056469366 -0.03271382 -0.066311665 -0.11823355 0.111879185 0.15011905 -0.047136784 0.014290331
0.08417922 0.005029929 0.021224158 -0.06629044 0.15239866 -0.020272478 -0.09924258 -0.024936868
-0.0145598035 -0.1051517 0.121117085 -0.048082538 -0.010463139 -0.09672134 -0.09647773 0.14456373
-0.052931882 -0.15604162 -0.15445206 0.097362354 0.0003449928 -0.20442532 0.09471407 -0.14120601
-0.003752042 -0.06722397 -0.19045727 -0.07604239 -0.09766704 -0.0233971 0.019337015 -0.030368842
0.21304289 -0.13531129 -0.095327765 0.06322079 -0.24606024 0.09975021 0.05794495 -0.044948116
-0.023163224 0.025439486 0.048531286 0.06380044 0.07232788 -0.17024541 0.19535087 -0.032933164
-0.068572916 0.003210358 -0.07124619 0.10491398 -0.109121785 -0.11271733 -0.024672274 0.14878435
0.0354066 -0.06349851 -0.05925833 0.097623885 0.29012606 -0.00068032776 -0.052754555 -0.116924055
0.0075511956 -0.11400826 -0.16104443 -0.060646284 -0.17248102 -0.0043726875 -0.034895115 -0.055354796
-0.23049623 -0.15122677 -0.022196867 -0.1008062 -0.13425748 0.23503537 0.07634043 -0.012518054
0.09148169 -0.12532432 -0.12829974 -0.034294732 -0.12232818 -0.039146412 0.07461294 0.0043193446
-0.08576912 0.020660471 -0.080644324 0.13524516 -0.060217142 -0.14480838 0.03636152 0.020474384
0.0044192136 0.16719975 0.011779101 -0.165917 -0.0028796464 -0.040118024 -0.088597685 0.16393098
-0.10710339 0.047098037 0.06884023 -0.10619003 -0.13009399 0.134921 -0.05450592 -0.17139131
-0.026568474 0.0067732395 -0.03589645 -0.07711005 -0.0037635078 -0.16179842 0.032699402 0.032023378
-0.022586273 0.1916376 0.04591203 0.046704367 -0.15774046 -0.20380902 -0.29485354 0.25931114
00000000: 634b ffbc e6a8 033d d464 083d 6cfe 8a3b
00000010: edda a5bc 8ed2 bb3d adc0 d13d 2689 f0bd
00000020: f4d3 ce3c c517 103d 38c6 f7bc 6252 883d
00000030: 123d 0bbe 17dd 9bbd 6b4e 86bb d600 a53d
00000040: b181 fd3b 924e a8bd 01a8 2fbd b1ca 20bc
00000050: a3c4 85bc 1a2f bbbd 0115 aebd 35d8 223d
00000060: 4a6a 1cbd 17ef 38bd 2f24 8e3d 0f35 973d
00000070: e301 0f3d 1d52 c2bd e20b 26be 5fb2 903d
00000080: c0e1 a2bd 2fb2 6abe 8af1 1e3e 809c 1e3d
00000090: 4660 50bc 3ddc 9cbd 61b3 6fbd 49b3 5f3e
000000a0: 9d8a 8ebd ddb3 4dbe 0050 ba3d 6662 e03c
000000b0: 808e 993d 409b 663d 15eb 7fbc 53ca 70bd
000000c0: 93e9 bfbc 85cf c1bc 046c f3bd ac54 acbd
000000d0: 557a 1a3c 5655 3ebe d4b6 643c e7a7 9c3c
000000e0: 57b9 bebd 162f 44bd ddf9 a2bc 0db8 6abc
000000f0: 89d2 18be b8ec 033e 5853 183e a674 2fbb
00000100: f29b d7bc c677 11bd 9adb 823d ac0b b53c
00000110: 7516 b2ba cca4 93bc 5888 1ebd efcc ae3c
00000120: 2b13 72bd d962 44bd ec52 31be fdf3 bdbd
00000130: c3d0 8cbd 9e27 443c f0dc b2bd 82a1 17be
00000140: 9f74 083e 7061 6bbd d4cd 12bd 4e3e d03a
00000150: fccc a63c 1142 0e3d 6013 e5bc 1ac2 6abe
00000160: 4cba 21bd e63d 1a3d f736 85bd e7bb 0ebd
00000170: 7065 d6bd 586a 893d 7e0e 36bd 9110 8dbd
00000180: 4d14 983b 76cc afbd cd9b 653d 97b3 3fbe
00000190: f425 8ebe 49db 6abe 9f3d 923e 4020 b23d
000001a0: 26fd dabd 7f0f 493d b5ec d7bd 6057 243d
000001b0: 2adf b73d f019 db3c 225b 8ebd 02e9 463d
000001c0: 7a06 09bd f9a6 92bd 259d ebbd 5eb7 af3a
000001d0: d5d0 b2bd d3da 99bc 00b1 113d 53f7 49bd
000001e0: 6c4c 673d edfe 05bd 69ce 87bd 6e24 f2bd
000001f0: ea20 e53d cfb8 193e 8012 41bd fe21 6a3c
00000200: 2866 ac3d 1ad2 a43b 49de ad3c 48c3 87bd
00000210: 650e 1c3e 7812 a6bc b23f cbbd 6748 ccbc
00000220: 3e8c 6ebc c659 d7bd 3c0c f83d 32f2 44bd
00000230: 966d 2bbc d715 c6bd 1e96 c5bd 8408 143e
00000240: 1acf 58bd 60c9 1fbe ae28 1ebe ea65 c73d
00000250: 26e0 b439 df54 51be 73f9 c13d 4f98 10be
00000260: d2e4 75bb b9ac 89bd 3b07 43be 1dbc 9bbd
00000270: a805 c8bd 46ab bfbc a968 9e3c 14c8 f8bc
00000280: ea27 5a3e 0b8f 0abe 343b c3bd e779 813d
00000290: 37f7 7bbe d749 cc3d af57 6d3d 841b 38bd
000002a0: cdc0 bdbc 7866 d03c bec8 463d cea9 823d
000002b0: a420 943d d054 2ebe 0f0a 483e ede4 06bd
000002c0: f56f 8cbd df64 523b 86e9 91bd 24dd d63d
000002d0: 3e7b dfbd 58d8 e6bd 821d cabc ed5a 183e
000002e0: 8306 113d 820b 82bd ddb8 72bd 08ef c73d
000002f0: 678b 943e 0658 32ba 2915 58bd e175 efbd
00000300: 0570 f73b 2a7d e9bd d5e8 24be 3d68 78bd
00000310: dd9e 30be c348 8fbb 2eee 0ebd b6bb 62bd
00000320: 3407 6cbe 31db 1abe 34d6 b5bc 7b73 cebd
00000330: cb7a 09be 1dad 703e 5f58 9c3d 8618 4dbc
00000340: c15a bb3d 0555 00be 0261 03be a278 0cbd
00000350: 3287 fabd fd57 20bd abce 983d 4a89 8d3b
00000360: b8a7 afbd 2640 a93c da28 a5bd b57d 0a3e
00000370: 40a6 76bd a648 14be d1ef 143d e5b9 a73c
00000380: 0dcf 903b 6936 2b3e 21fd 403c 25e6 29be
00000390: 73b8 3cbb cc52 24bd b472 b5bd 86dd 273e
000003a0: 0659 dbbd dfe9 403d 1bfc 8c3d 297a d9bd
000003b0: 5c37 05be bb28 0a3e 9941 5fbd 3481 2fbe
000003c0: 21a6 d9bc 0df2 dd3b 2808 13bd e0eb 9dbd
000003d0: 2fa5 76bb 7cae 25be cfef 053d f22a 033d
000003e0: d906 b9bc a63c 443e 410e 3c3d 144d 3f3d
000003f0: b786 21be 50b3 50be 0bf7 96be 6ec4 843e

conv2.bias f4 [64]
-0.012473471 -0.0757977 0.037105802 0.007575945 -0.045854114 -0.12789735 -0.043696024 -0.032359637
-0.09400929 -0.08863653 -0.0101676015 -0.06531607 -0.0031806813 -0.13408992 -0.010988126 -0.05422265
-0.008332164 -0.084947094 -0.05598992 -0.13143082 0.0520811 -0.12404493 -0.076731175 -0.009621033
-0.0032046908 -0.044581883 -0.09743275 0.008469202 0.019266194 0.051272307 -0.08949473 -0.1050576
0.017372666 -0.048738882 -0.067520894 -0.029872142 0.022402568 0.010343773 -0.06467562 -0.17485197
-0.08563963 -0.12152006 -0.07900835 -0.040452972 -0.04154059 -0.14059038 -0.090985104 -0.0920073
-0.030899607 -0.010358212 -0.052346047 -0.024172029 -0.08084974 -0.07300724 -0.027287338 -0.06366101
-0.06433873 -0.12086639 0.012759761 0.01808493 -0.12856293 -0.012917315 -0.093441874 -0.021556936
00000000: 885d 4cbc d33b 9bbd 41fc 173d a23f f83b
00000010: 86d1 3bbd 86f7 02be 9afa 32bd 8a8b 04bd
00000020: f187 c0bd 1287 b5bd 0396 26bc 6fc4 85bd
00000030: fa72 50bb de4e 09be 8a07 34bc 9218 5ebd
00000040: a183 08bc bef8 adbd b055 65bd cd95 06be
00000050: fe52 553d 450b febd 3c25 9dbd 8aa1 1dbc
00000060: ca05 52bb 7e9b 36bd d28a c7bd 68c2 0a3c
00000070: 23d4 9d3c e902 523d 0349 b7bd 7028 d7bd
00000080: 1f51 8e3c 6ca2 47bd 6548 8abd 6cb6 f4bc
00000090: 9785 b73c ee78 293c a774 84bd 650c 33be
000000a0: d563 afbd 82df f8bd 21cf a1bd 04b2 25bd
000000b0: 7726 2abd edf6 0fbe 6656 babd 536e bcbd
000000c0: 2c21 fdbc 7db5 29bc cf68 56bd 6b04 c6bc
000000d0: 8c94 a5bd d284 95bd b289 dfbc b460 82bd
000000e0: 06c4 83bd cc88 f7bd 510e 513c d926 943c
000000f0: 00a6 03be 25a3 53bc 745e bfbd 2c98 b0bc

attention.attention.0.weight f4 [1, 64, 1, 1]
0.2698471 0.17519292 0.11325652 0.21069477 0.10253652 0.12413767 0.5049263 0.02630937
0.21107322 0.34916 0.431902 0.047529373 0.17752202 0.11794253 0.031911775 0.2721571
0.17481923 0.18762739 0.15985118 0.21290743 0.2562473 0.08715779 0.35745448 0.20986965
0.17278236 0.09305869 0.020577144 0.2769682 0.18797132 0.14051113 0.18117599 0.69456905
-0.05307704 0.10080305 0.004900636 0.12976767 0.084244445 -0.004979215 0.27407068 0.32096457
0.22492024 0.024145737 0.38354626 0.4372032 0.2407783 0.22038458 0.06564903 0.23797175
0.13044855 0.07162491 0.26618734 0.21514381 0.06494718 0.08367324 0.32392916 0.18669729
0.17519166 0.042454828 0.01582658 0.29127246 0.18722817 0.21648686 0.25230366 0.1814354
00000000: 6629 8a3e c665 333e 09f3 e73d 5fc0 573e
00000010: abfe d13d e43b fe3d da42 013f bf86 d73c
00000020: 9423 583e 19c5 b23e 4222 dd3e 29ae 423d
00000030: 55c8 353e da8b f13d ecb5 023d 2d58 8b3e
00000040: d003 333e 6521 403e 07b0 233e 6804 5a3e
00000050: d932 833e c97f b23d 4604 b73e 12e8 563e
00000060: dced 303e 8e95 be3d 6691 a83c c7ce 8d3e
00000070: 8e7b 403e 26e2 0f3e 3386 393e 47cf 313f
00000080: 4f67 59bd d471 ce3d 8495 a03b d1e1 043e
00000090: 5a88 ac3d af28 a3bb fe52 8c3e 7855 a43e
000000a0: 7e51 663e 48cd c53c 2d60 c43e 19d9 df3e
000000b0: 968e 763e 7fac 613e 0073 863d deae 733e
000000c0: 4e94 053e 15b0 923d b549 883e a94e 5c3e
000000d0: 0703 853d e05c ab3d 0bda a53e 932d 3f3e
000000e0: 7165 333e 1de5 2d3d bea6 813c aa21 953e
000000f0: beb8 3f3e bbae 5d3e f22d 813e 34ca 393e

fc.weight f4 [10, 3136]
-0.051260047 -0.037415117 -0.11211053 0.0007197372 -0.060892057 0.0056321365 0.036887284 -0.0036098654
0.03693922 0.033294316 -0.016346546 -0.0535856 0.028669778 -0.019532982 0.0020152861 -0.030594796
0.019176764 0.0372219 -0.031407543 -0.037247214 0.037845276 -0.06810764 -0.0052585076 0.011996197
-0.11741953 -0.009244036 -0.002595464 -0.020590013 -0.0043865084 0.040968865 0.028728345 -0.10305432
-0.08474074 -0.04365545 -0.0836583 -0.03656879 -0.04458833 -0.03688317 0.006469331 -0.05906087
-0.03412516 -0.0098942015 -0.0007871669 -0.007759797 -0.028185649 -0.06105452 -0.039964195 -0.038966205
-0.031266965 0.0024977454 -0.051645745 -0.027179554 -0.10981419 -0.1010759 -0.1348941 0.018581556
0.056295123 -0.048562955 -0.2620065 -0.20853753 -0.050938036 -0.07953799 0.0631303 0.070143685
-0.019432709 -0.1572806 0.08718953 0.13343138 0.08417843 0.04433445 0.017596902 0.00257119
-0.07126446 0.1726426 -0.024314722 0.0049491664 0.0196938 0.028856738 0.012998365 0.09403057
0.12725587 -0.04491631 -0.101587296 -0.029388174 0.04461068 0.017053463 0.25462708 -0.08334112
-0.3353369 -0.15702036 -0.14427066 0.019982252 -0.11561713 0.07906775 -0.23961437 -0.3187593
-0.15370117 -0.073582776 -0.00472212 0.0023860838 -0.019966578 -0.0283084 -0.012976418 0.005365526
-9.443982e-06 0.005807698 -0.058118545 -0.030826941 -0.077776365 0.060263425 -0.0063567744 -0.01357098
-0.016890269 -0.01261831 -0.069247454 0.00022053259 0.12374471 0.028456043 0.0062684757 -0.016227078
-0.018672144 -0.07480503 -0.12202729 0.056773793 0.012578898 0.013160847 0.013903618 0.029774832
-0.06920457 -0.0469917 -0.06918863 0.042142943 -0.0013725618 0.015663646 -0.013389033 0.038928293
0.060685966 0.084119685 0.0077214194 -0.022116993 -0.012675876 0.037142202 0.028853845 -0.07245288
-0.010726235 -0.029825034 0.005019904 0.051040128 0.012904349 -0.0003169781 -0.054770704 -0.09452775
-0.07430279 -0.04304601 0.008958708 -0.040460672 -0.10237752 -0.058324736 -0.022345146 -0.08663141
0.15620375 -0.008906991 -0.05189627 -0.11095867 0.16312058 -0.070719875 0.07919487 0.028890932
-0.033836756 -0.042048573 -0.015205124 -0.044867516 -0.1690621 0.083554156 0.07281699 -0.06725774
-0.0058632917 0.07803607 0.03233142 0.10676104 0.07249682 0.06467134 0.0720031 0.1063672
-0.028311986 -0.09721772 -0.123628415 -0.08774562 -0.05991884 0.008990899 0.002704176 -0.017029349
-0.067254454 -0.0701812 0.007819428 -0.07548078 0.01016979 0.0019039109 -0.024050394 -0.0034262002
-0.03834917 -0.014352046 -0.014946852 -0.020540245 -0.03994417 -0.046915423 -0.015302579 0.012236518
0.07272489 0.0007063865 -0.015020872 0.036120985 -0.023885015 -0.07138734 0.07596224 0.05696072
7.096946e-05 -0.009064798 0.03219542 0.018092632 0.06450085 0.00020062929 0.011613357 -0.012065008
-0.06225481 0.0022653614 0.05977037 0.006514571 -0.09429959 -0.07281804 -0.036984593 -0.014043854
-0.006723236 0.021357842 -0.06813104 -0.028246157 -0.037817255 -0.060088027 -0.04184974 0.017716072
-0.028321955 -0.014296279 -0.009432283 -0.043125726 -0.00086601096 -0.0044024857 0.09562629 0.0058239023
0.007986059 -0.051262256 0.0057295277 0.04186895 0.083692126 7.427091e-05 -0.25070214 -0.11053392
00000000: 0ef6 51bd 9840 19bd 359a e5bd bfac 3c3a
00000010: f369 79bd c98d b83b 1f17 173d 7e93 6cbb
00000020: 944d 173d 9f5f 083d 31e9 85bc 937c 5bbd
00000030: e2dc ea3c a203 a0bc e412 043b f0a1 fabc
00000040: 9718 9d3c fe75 183d 32a5 00bd 8990 18bd
00000050: a603 1b3d 057c 8bbd 8f4f acbb b28b 443c
00000060: a779 f0bd 4c74 17bc a918 2abb 63ac a8bc
00000070: b3bc 8fbb f8ce 273d b557 eb3c 250e d3bd
00000080: 8e8c adbd 0fd0 32bd 0b55 abbd 28c9 15bd
00000090: 41a2 36bd cf12 17bd affc d33b d0e9 71bd
000000a0: d3c6 0bbd 4a1b 22bc e059 4eba e545 febb
000000b0: 97e5 e6bc 4e14 7abd 7fb1 23bd 079b 1fbd
000000c0: ca11 00bd 37b1 233b 7d8a 53bd a8a7 debc
000000d0: 43e6 e0bd e200 cfbd ae21 0abe 5938 983c
000000e0: b795 663d f3e9 46bd b725 86be dd8a 55be
000000f0: 67a4 50bd d0e4 a2bd 754a 813d 7ea7 8f3d
00000100: 5831 9fbc 2a0e 21be 6d90 b23d 3ca2 083e
00000110: be65 ac3d 0a98 353d 6127 903c 6981 283b
00000120: 1af3 91bd 39c9 303e ab2f c7bc 9e2c a23b
00000130: e454 a13c f764 ec3c 18f7 543c 1993 c03d
00000140: 5d4f 023e 2afa 37bd 000d d0bd 78bf f0bc
00000150: b0b9 363d b4b3 8b3c 7b5e 823e c0ae aabd
00000160: 47b1 abbe f2c9 20be b0bb 13be d2b1 a33c
00000170: adc8 ecbd 46ee a13d 785d 75be 6b34 a3be
00000180: d763 1dbe 91b2 96bd 03bc 9abb d85f 1c3b
00000190: f390 a3bc 05e7 e7bc 0b9b 54bc 4bd1 af3b
000001a0: 9871 1eb7 804e be3b b60d 6ebd c888 fcbc
000001b0: 3749 9fbd c8d6 763d 7d4c d0bb d158 5ebc
000001c0: 765d 8abc 07bd 4ebc 9cd1 8dbd c43e 6739
000001d0: de6d fd3d a61c e93c c967 cd3b a6ee 84bc
000001e0: 53f6 98bc 6133 99bd 72e9 f9bd a38b 683d
000001f0: b917 4e3c 98a0 573c 00cc 633c 59ea f33c
00000200: 20bb 8dbd 5e7a 40bd c5b2 8dbd 149e 2c3d
00000210: 88e7 b3ba 0c51 803c ad5d 5bbc 4673 1f3d
00000220: d991 783d f146 ac3d f603 fd3b b22e b5bc
00000230: 7aae 4fbc 6c22 183d e65e ec3c 2d62 94bd
00000240: 17bd 2fbc a153 f4bc 027e a43b 740f 513d
00000250: c36c 533c 1530 a6b9 3f57 60bd c497 c1bd
00000260: 102c 98bd 0351 30bd 8bc7 123c 17ba 25bd
00000270: 4eab d1bd ebe5 6ebd 2b0d b7bc cf6b b1bd
00000280: e0f3 1f3e a1ee 11bc 2f91 54bd 4d3e e3bd
00000290: 1509 273e 95d5 90bd ec30 a23d adac ec3c
000002a0: 6998 0abd 203b 2cbd ea1e 79bc 00c7 37bd
000002b0: 9d1e 2dbe 711e ab3d 1321 953d 6dbe 89bd
000002c0: db20 c0bb 60d1 9f3d f36d 043d 88a5 da3d
000002d0: 3679 943d 6872 843d 5c76 933d 0cd7 d93d
000002e0: 8aee e7bc 151a c7bd e530 fdbd fab3 b3bd
000002f0: 756d 75bd 904e 133c 8b38 313b 2281 8bbc
00000300: b4bc 89bd 29bb 8fbd 0f1d 003c ab95 9abd
00000310: 319f 263c a68c f93a 5505 c5bc 1a8a 60bb
00000320: 0514 1dbd d824 6bbc a4e3 74bc 0444 a8bc
00000330: 7f9c 23bd 632a 40bd abb7 7abc ad7b 483c
00000340: caf0 943d cc2c 393a 1a1a 76bc 99f3 133d
00000350: 82aa c3bc 8733 92bd 1792 9b3d a54f 693d
00000360: 70d5 9438 8584 14bc 58df 033d 0037 943c
00000370: 0619 843d 0460 5239 f345 3e3c 50ac 45bc
00000380: e6fe 7ebd 7576 143b c7d1 743d 2f78 d53b
00000390: 2520 c1bd a021 95bd 287d 17bd 3118 66bc
000003a0: 974e dcbb a4f6 ae3c 4988 8bbd 7c64 e7bc
000003b0: 44e6 1abd dd1e 76bd a26a 2bbd 4c21 913c
000003c0: 7203 e8bc f13a 6abc dd89 1abc 9aa4 30bd
000003d0: 0305 63ba ba42 90bb b7d7 c33d 6fd6 be3b
000003e0: f6d7 023c 5ff8 51bd c3be bb3b c77e 2b3d
000003f0: c766 ab3d e4c1 9b38 085c 80be 9c5f e2bd

fc.bias f4 [10]
0.023749234 0.06842176 0.03889909 -0.064031765 -0.050140575 0.00087346934 -0.011006395 0.006668926
-0.019048242 0.005033761
00000000: c18d c23c b520 8c3d a754 1f3d 1623 83bd
00000010: 3460 4dbd 89f9 643a 2b54 34bc 0287 da3b
00000020: 0f0b 9cbc 3ff2 a43b
